ChatBot/data.pth (torch, 5418 bytes, 6 tensors)

l1.weight f4 [8, 54]
0	0x3ec24c4c	0.37948835
1	0x3d89bbe1	0.06725288
2	0x3e8d0b46	0.27547663
3	0x3e42d88d	0.1902792
4	0x3eb9ee5e	0.36314672
5	0xbebd9738	-0.37029433
6	0x3eb348ae	0.35016388
7	0x3e8aabeb	0.27084288
8	0x3f19ba45	0.6004985
9	0x3e7120af	0.23547624
10	0x3e4e863e	0.20168397
11	0xbdb4affd	-0.088226296
12	0xbd2fc4c5	-0.042912263
13	0xbe8be2a6	-0.27321357
14	0xbdc3fef9	-0.095701165
15	0xbe87011b	-0.2636803
16	0xbd029550	-0.031880677
17	0xbeb297a9	-0.34881333
18	0xbe8622fa	-0.2619856
19	0x3e11641e	0.14198348
20	0x3e37ae1c	0.17937511
21	0x3e37ebd7	0.1796106
22	0x3d2536c6	0.04033544
23	0xbe9a4ce1	-0.3013678
24	0x3e4e1d0d	0.2012827
25	0x3df8ac01	0.12142182
26	0xbe1cc385	-0.1530896
27	0xbef3a94a	-0.47590095
28	0xbe51ca5a	-0.20487347
29	0xbed25826	-0.41082877
30	0xbe94f3e9	-0.2909234
31	0xbe278342	-0.16358665
32	0x3e4b3718	0.19845235
33	0x3ec24dc4	0.37949955
34	0xbe406876	-0.18789849
35	0xbe38bd8d	-0.18041058
36	0xbe2eecfe	-0.17082593
37	0x3f1e23ea	0.6177355
38	0x3e7b50d0	0.24542546
39	0x3ecd5713	0.40105495
40	0xbe67535a	-0.2259039
41	0xbe9b0b4c	-0.30282056
42	0xbd9c55ae	-0.076335296
43	0xbe199dc0	-0.15001583
44	0x3e92e42c	0.28689706
45	0xbdbecd07	-0.093164496
46	0x3f478b84	0.7794726
47	0x3e8c50fb	0.27405533
48	0x3e01f3b2	0.12690619
49	0xbe74081b	-0.23831217
50	0xbe1d21d1	-0.15344931
51	0xbe09cf67	-0.13458024
52	0x3ec06be5	0.37582317
53	0x3ede0001	0.43359378
54	0xbe71fca9	-0.23631538
55	0xbea65aee	-0.3249125
56	0xbeedf918	-0.46479106
57	0x3e9a9d05	0.3019792
58	0x3dc2fa64	0.095204145
59	0x3efc0911	0.49225667
60	0xbd888614	-0.066661984
61	0xbe9c5db5	-0.30540243
62	0xbedd8bce	-0.43270725
63	0xbee3d5ca	-0.44499046
64	0x3ea22105	0.31665817
65	0x3ec4629f	0.38356492
66	0x3e244008	0.16040051
67	0x3f0090ac	0.5022075
68	0xbe22121f	-0.15827225
69	0x3ecb7b98	0.39742732
70	0x3f037ce5	0.5136245
71	0x3f049d4d	0.5180252
72	0x3efc5c43	0.4928914
73	0x3f21b6be	0.6316947
74	0xbe1398ec	-0.14413804
75	0x3f2ccc27	0.6749901
76	0x3edef06c	0.43542802
77	0x3f31e827	0.6949486
78	0x3dd88b52	0.10573448
79	0x3e49aea2	0.19695523
80	0x3f0b9a86	0.5453266
81	0xbec50a82	-0.3848458
82	0x3e9e5a32	0.3092819
83	0xbebc3e4d	-0.36766282
84	0x3ed86abf	0.4226894
85	0x3f03e24d	0.5151718
86	0xbd07beac	-0.033140823
87	0xbef83c3e	-0.4848346
88	0xbe8814cf	-0.26578376
89	0x3ecbfb80	0.39840317
90	0x3e2a4efa	0.1663169
91	0xbf04604b	-0.5170943
92	0xbe6f7009	-0.23382582
93	0xbda76fb8	-0.081756055
94	0x3ed01767	0.40642855
95	0x3f02650c	0.50935435
96	0x3e6fcbae	0.23417541
97	0xbe0db42a	-0.13838258
98	0xbd026d1a	-0.03184233
99	0xbd93cc9d	-0.07216761
100	0xbf00cf19	-0.50316006
101	0xbe82f200	-0.25575256
102	0x3ebb2e6a	0.3655885
103	0x3ee76891	0.45196965
104	0x3e69dc33	0.22837906
105	0x3eea9b17	0.4582145
106	0xbe6f3af1	-0.23362328
107	0x3e2a64e2	0.16640046
108	0x3f31ad16	0.69404733
109	0x3e9f87d3	0.31158313
110	0xbdd5db85	-0.10442261
111	0xbe64fa36	-0.22361073
112	0xbebeba3b	-0.37251458
113	0x3f4c2598	0.79744864
114	0xbc8c794a	-0.017147679
115	0xbcb5c5fa	-0.02218913
116	0xbe4b93af	-0.19880556
117	0x3da064e9	0.07831747
118	0xbe4cb53b	-0.19991009
119	0xbd9d6b24	-0.07686451
120	0xbe1c725c	-0.15278
121	0x3c6c70d3	0.014431196
122	0x3c0f8ef0	0.008762106
123	0xbe3ba528	-0.18324721
124	0xbe9bbbaa	-0.30416614
125	0x3f5fba1e	0.8739337
126	0x3dac054c	0.08399448
127	0xbf0e4634	-0.5557587
128	0x3f0bdf08	0.54637194
129	0xbf097ddb	-0.53707665
130	0xbf0bbab6	-0.54581773
131	0xbef12c99	-0.47104338
132	0xbd6d57bb	-0.057944994
133	0xbeae6199	-0.34058836
134	0x3e845536	0.2584626
135	0xbe41a9b1	-0.18912388
136	0x3ec293e4	0.38003457
137	0xbda90bdd	-0.08254216
138	0x3f3db668	0.74106455
139	0xbbbd4a4d	-0.0057766796
140	0x3e818ffb	0.2530516
141	0xbe2cf86b	-0.16891639
142	0xbcfb84d3	-0.030702984
143	0xbd98c719	-0.0745985
144	0x3e955ead	0.29173794
145	0xbe8ec6fa	-0.27886182
146	0x3d84ba0d	0.06480799
147	0xbdbfd362	-0.0936649
148	0x3f0b6fce	0.54467475
149	0xbe4287dd	-0.1899714
150	0xbd9e6e8f	-0.07735931
151	0xbbe12936	-0.006871368
152	0xbd994ede	-0.07485746
153	0xbc804aa3	-0.01566059
154	0x3f58363c	0.84457755
155	0x3f0abd6b	0.5419528
156	0xbcc6057c	-0.024172537
157	0x3d98835d	0.074469306
158	0xbe247837	-0.16061483
159	0xbdc4d433	-0.09610786
160	0xbda458db	-0.0802476
161	0x3eaa5358	0.3326671
162	0xbd2791ae	-0.040910415
163	0xbf00e8b9	-0.50355107
164	0x3eed50b8	0.46350646
165	0xbe626ce0	-0.22111845
166	0x3e3240b7	0.17407499
167	0x3e7b90a3	0.24566893
168	0x3f030762	0.5118314
169	0x3ed7d1d3	0.4215227
170	0x3f27537c	0.6536176
171	0x3ea6cbfe	0.3257751
172	0xbdb5b876	-0.08873074
173	0x3e40100a	0.18756118
174	0x3f3cddd8	0.73776007
175	0x3eccb693	0.39983043
176	0xbe34a68e	-0.1764166
177	0xbcf822b5	-0.030289987
178	0xbe5d8b02	-0.21635059
179	0x3e9ab5a2	0.302167
180	0x3f10ed6a	0.56612265
181	0xbe9c4052	-0.30517823
182	0x3e35e4e8	0.17763102
183	0xbe9c45a6	-0.30521888
184	0xbe9c3919	-0.30512312
185	0xbeb58370	-0.3545184
186	0x3ee947a8	0.45562482
187	0xbe8fb8f3	-0.28070793
188	0x3f4acd21	0.7921925
189	0xbefdf83a	-0.49603444
190	0x3eeadbf5	0.4587094
191	0xbeff8830	-0.4990859
192	0x3c6fe6b9	0.014642411
193	0x3edbcc5d	0.42929354
194	0xbd9f81c7	-0.07788425
195	0x3f03ad3b	0.51436204
196	0xbd8584f8	-0.065195024
197	0xbd30826c	-0.04309313
198	0x3ee03427	0.4378979
199	0x3f1ab8be	0.60438144
200	0x3f17fef3	0.59373397
201	0x3f172adb	0.5904977
202	0xbdab65ae	-0.08369003
203	0x3f2c89c4	0.67397714
204	0x3e72ff24	0.23730141
205	0xbdc87478	-0.0978784
206	0x3e982792	0.2971769
207	0x3d0a9432	0.033832736
208	0xbd1e3654	-0.03862603
209	0xbd275cbe	-0.04085993
210	0x3e4f0df3	0.20220165
211	0x3f208d85	0.6271594
212	0xbd24e559	-0.040257785
213	0x3f049f72	0.51805794
214	0x3f1fb277	0.6238169
215	0x3ee8c4af	0.45462558
216	0xbe024884	-0.12722975
217	0x3eb96a0a	0.36213714
218	0x3ed469e0	0.41487026
219	0xbe560947	-0.20901977
220	0xbee34719	-0.4439018
221	0x3f127c4d	0.5722092
222	0x3e5e65d6	0.21718535
223	0x3e843425	0.25821033
224	0xbe000535	-0.12501986
225	0x3e4f396a	0.20236745
226	0xbe7c39fe	-0.24631497
227	0x3f22cd74	0.63594747
228	0x3eae6d3a	0.34067708
229	0x3efe4cc0	0.4966793
230	0x3e5ada94	0.21372443
231	0x3ef39e12	0.47581536
232	0xbe58616c	-0.21130913
233	0x3f24aeb1	0.6432906
234	0xbea1e47e	-0.31619638
235	0xbeebf7b3	-0.46087417
236	0xbdcdeab2	-0.1005453
237	0xbe9780c0	-0.29590416
238	0xbea4b035	-0.32165685
239	0x3e9e3b3d	0.3090457
240	0x3ecd2144	0.40064442
241	0xbe6d8017	-0.23193394
242	0xbea1cee5	-0.3160316
243	0x3f1d0b38	0.61345243
244	0x3d1fb50a	0.03899101
245	0x3f1e5db9	0.6186176
246	0x3ef91347	0.4864752
247	0x3edd83a5	0.432645
248	0xbe52ddb8	-0.20592391
249	0x3edc963a	0.43083364
250	0x3edbe87a	0.42950803
251	0x3eeb339d	0.45937815
252	0x3db3c450	0.08777678
253	0xbdfa48fb	-0.12220951
254	0x3e7d4825	0.24734552
255	0x3ec48093	0.38379344

l1.bias f4 [8]
0	0x3f06e32b	0.5269038
1	0x3f3ff6ba	0.7498585
2	0x3f1c324f	0.61014265
3	0x3e9c3306	0.30507678
4	0x3f0338ff	0.51258844
5	0x3eb3624f	0.3503594
6	0x3f11f0b8	0.5700793
7	0x3f0aefdf	0.54272264

l2.weight f4 [8, 8]
0	0xbf451073	-0.76978225
1	0x3f016375	0.50542384
2	0x3ecd8390	0.40139437
3	0xbea809e0	-0.32820034
4	0x3f306d51	0.68916804
5	0x3f24079f	0.6407413
6	0xbf505d7e	-0.8139266
7	0x3f5f7134	0.8728211
8	0x3f341511	0.70344645
9	0x3e7540d9	0.23950519
10	0x3f9bdb22	1.2176249
11	0x3fa82171	1.3135206
12	0xbe5e0193	-0.21680288
13	0x3f151cbf	0.5824699
14	0x3de57649	0.11204202
15	0xbf17f585	-0.5935901
16	0xbee990f1	-0.45618394
17	0x3fa4c8c1	1.2873765
18	0x3eb7f92a	0.35932285
19	0x3f8e8bb8	1.1136389
20	0x3f0aaa4e	0.54166114
21	0xbf6d8bd2	-0.92791474
22	0xbc0530c7	-0.008129305
23	0x3e6785a7	0.22609578
24	0x3d72d069	0.059280787
25	0x3f56137c	0.8362348
26	0x3e523b02	0.20530322
27	0xbf81cdae	-1.0140893
28	0x3f184965	0.5948699
29	0xbeb1f181	-0.34754565
30	0x3f165c8f	0.58734983
31	0x3da99054	0.082794815
32	0x3f7ba52f	0.98298925
33	0x3d1e6fca	0.03868083
34	0x3f4f0c0c	0.8087776
35	0xbf27de96	-0.65574014
36	0xbe95cc68	-0.29257512
37	0x3f9f34e4	1.2438016
38	0x3f7c4872	0.9854804
39	0x3e476f03	0.19475941
40	0x3e9e0c93	0.30868968
41	0xbf25873b	-0.6465947
42	0xbf31d415	-0.69464236
43	0x3ebb3003	0.36560068
44	0x3f8c90fd	1.0981747
45	0x3ecc8d0e	0.39951366
46	0x3f237291	0.6384669
47	0x3f9587a8	1.1682024
48	0x3f5a9223	0.85379237
49	0x3ecd0bb9	0.40048006
50	0xbf8f1e8b	-1.1181196
51	0xbee2a771	-0.44268373
52	0x3e6bf351	0.23042037
53	0xbef99331	-0.4874511
54	0x3fb65e8e	1.4247606
55	0x3f86b91b	1.052524
56	0x3f1eeb19	0.6207748
57	0xbf64afc9	-0.89330727
58	0x3f9eb64c	1.2399383
59	0x3dda503b	0.10659834
60	0x3f8884e5	1.0665556
61	0x3f7bd46d	0.9837101
62	0x3d1cea2c	0.03830926
63	0x3eb990fc	0.36243427

l2.bias f4 [8]
0	0x3dce6049	0.10076959
1	0xbe04ca93	-0.12967901
2	0x3ededc71	0.43527558
3	0x3f48f3cd	0.7849701
4	0x3f0c917f	0.5490951
5	0xbe0a5f2c	-0.13512868
6	0x3f1c3459	0.61017376
7	0x3ed1301b	0.40857014

l3.weight f4 [7, 8]
0	0x3f22b6cc	0.63560176
1	0xbf8ebe99	-1.1151916
2	0x3cf567df	0.029956756
3	0xbd027990	-0.031854212
4	0xbfd31717	-1.6491421
5	0x3ea9a87c	0.33136356
6	0x3e4673ee	0.19380161
7	0xbebd5374	-0.36977732
8	0x3f25b200	0.6472473
9	0xbfb3ef8a	-1.4057477
10	0xbfab22bb	-1.3369974
11	0xbf358f4e	-0.7092179
12	0xbe47cc77	-0.19511591
13	0x3f01a981	0.5064927
14	0x3d5be52e	0.05368536
15	0x3e9fcd50	0.31211329
16	0x3eaede16	0.34153813
17	0xbdebd1db	-0.11514636
18	0x3dbff677	0.09373181
19	0x3e8b1845	0.27166954
20	0xbf11118a	-0.5666739
21	0xbf5ac59a	-0.85457766
22	0xbf29a799	-0.6627136
23	0x3f088746	0.5333141
24	0xbf94d0ee	-1.162626
25	0xbfaacad3	-1.3343147
26	0xbca813e4	-0.020517297
27	0x3ecffbda	0.40621835
28	0x3e870913	0.2637411
29	0xbe9d738a	-0.30752212
30	0x3f6ebc4c	0.9325607
31	0xbf4993ae	-0.78740966
32	0xbe86452b	-0.26224646
33	0x3f050c5d	0.5197199
34	0x3f21079d	0.6290224
35	0xbf314da8	-0.6925912
36	0xbfbefdac	-1.4921165
37	0xbf07d819	-0.53064114
38	0xbed42111	-0.41431478
39	0xbf979e6b	-1.184522
40	0xbf818230	-1.0117855
41	0xbe42d1ea	-0.19025388
42	0xbf80a9eb	-1.0051855
43	0xbf7e666c	-0.99375033
44	0xbe2e5ea3	-0.17028289
45	0x3f13b4fd	0.5769804
46	0x3edc7702	0.43059546
47	0x3eaf7ec8	0.34276414
48	0xbfba809f	-1.4570502
49	0x3ec1a6a7	0.37822458
50	0xbfd4ce1f	-1.6625403
51	0xbeb1a31d	-0.34694758
52	0x3ef64f08	0.4810717
53	0xbf8670af	-1.0503138
54	0xbec47964	-0.38373864
55	0x3f1df8a4	0.6170752

l3.bias f4 [7]
0	0xbc9ccfc8	-0.019142047
1	0xbe02914b	-0.12750737
2	0x3d7e8dc4	0.062146917
3	0x3eede2a4	0.46461976
4	0x3e6569e8	0.22403681
5	0xb9e3e805	-0.00043469682
6	0x3e8b81f1	0.27247575
